…
oftmax')\n])\n\n# Display the summary of the model architecture and the number of parameters\nmodel.summary()\n\n2025-04-23 19:04:34.853741: E external/local_xla/xla/stream_executor/cuda/cuda_platform.cc:51] failed call to cuInit: INTERNAL: CUDA error: Failed call to cuInit: UNKNOWN ERROR (303)\n\n\nModel: \"sequential\"\n\n\n\n┏━━━━━━━━━━━━━━━━━━━━━━━━━━━━━━━━━┳━━━━━━━━━━━━━━━━━━━━━━━━┳━━━━━━━━━━━━━━━┓\n┃ Layer (type)                    ┃ Output Shape           ┃       Param # ┃\n┡━━━━━━━━━━━━━━━━━━━━━━━━━━━━━━━━━╇━━━━━━━━━━━━━━━━━━━━━━━━╇━━━━━━━━━━━━━━━┩\n│ conv2d (Conv2D)                 │ (None, 222, 222, 32)   │           896 │\n├─────────────────────────────────┼────────────────────────┼───────────────┤\n│ max_pooling2d (MaxPooling2D)    │ (None, 111, 111, 32)   │             0 │\n├─────────────────────────────────┼────────────────────────┼───────────────┤\n│ conv2d_1 (Conv2D)               │ (None, 109, 109, 32)   │         9,248 │\n├─────────────────────────────────┼────────────────────────┼───────────────┤\n│ max_pooling2d_1 (MaxPooling2D)  │ (None, 54, 54, 32)     │             0 │\n├─────────────────────────────────┼────────────────────────┼───────────────┤\n│ global_average_pooling2d        │ (None, 32)             │             0 │\n│ (GlobalAveragePooling2D)        │                        │               │\n├─────────────────────────────────┼────────────────────────┼───────────────┤\n│ flatten (Flatten)               │ (None, 32)             │             0 │\n├─────────────────────────────────┼────────────────────────┼───────────────┤\n│ dense (Dense)                   │ (None, 128)            │         4,224 │\n├─────────────────────────────────┼────────────────────────┼───────────────┤\n│ dense_1 (Dense)                 │ (None, 128)            │        16,512 │\n├─────────────────────────────────┼────────────────────────┼───────────────┤\n│ dense_2 (Dense)                 │ (None, 9)              │         1,161 │\n└─────────────────────────────────┴────────────────────────┴───────────────┘\n\n\n\n Total params: 32,041 (125.16 KB)\n\n\n\n Trainable params: 32,041 (125.16 KB)\n\n\n\n Non-trainable params: 0 (0.00 B)"
  },
  {
    "objectID": "projects/boat-classifier/index.html#compile-the-model",
    "href": "projects/boat-classifier/index.html#compile-the-model",
    "title": "Boat Image Classification with CNN and Transfer Learning",
…
BatchNormalization())\nmn_model.add(Dropout(0.1))\nmn_model.add(Dense(128, activation='relu'))\nmn_model.add(Dense(128, activation='relu'))\nmn_model.add(Dense(num_classes, activation='softmax'))\n\n# Display the summary of the model architecture and the number of parameters\nmn_model.summary()\n\nModel: \"sequential_1\"\n\n\n\n┏━━━━━━━━━━━━━━━━━━━━━━━━━━━━━━━━━┳━━━━━━━━━━━━━━━━━━━━━━━━┳━━━━━━━━━━━━━━━┓\n┃ Layer (type)                    ┃ Output Shape           ┃       Param # ┃\n┡━━━━━━━━━━━━━━━━━━━━━━━━━━━━━━━━━╇━━━━━━━━━━━━━━━━━━━━━━━━╇━━━━━━━━━━━━━━━┩\n│ mobilenetv2_1.00_224            │ (None, 7, 7, 1280)     │     2,257,984 │\n│ (Functional)                    │                        │               │\n├─────────────────────────────────┼────────────────────────┼───────────────┤\n│ global_average_pooling2d_1      │ (None, 1280)           │             0 │\n│ (GlobalAveragePooling2D)        │                        │               │\n├─────────────────────────────────┼────────────────────────┼───────────────┤\n│ dropout (Dropout)               │ (None, 1280)           │             0 │\n├─────────────────────────────────┼────────────────────────┼───────────────┤\n│ dense_3 (Dense)                 │ (None, 256)            │       327,936 │\n├─────────────────────────────────┼────────────────────────┼───────────────┤\n│ batch_normalization             │ (None, 256)            │         1,024 │\n│ (BatchNormalization)            │                        │               │\n├─────────────────────────────────┼────────────────────────┼───────────────┤\n│ dropout_1 (Dropout)             │ (None, 256)            │             0 │\n├─────────────────────────────────┼────────────────────────┼───────────────┤\n│ dense_4 (Dense)                 │ (None, 128)            │        32,896 │\n├─────────────────────────────────┼────────────────────────┼───────────────┤\n│ batch_normalization_1           │ (None, 128)            │           512 │\n│ (BatchNormalization)            │                        │               │\n├─────────────────────────────────┼────────────────────────┼───────────────┤\n│ dropout_2 (Dropout)             │ (None, 128)            │             0 │\n├─────────────────────────────────┼────────────────────────┼───────────────┤\n│ dense_5 (Dense)                 │ (None, 128)            │        16,512 │\n├─────────────────────────────────┼────────────────────────┼───────────────┤\n│ dense_6 (Dense)                 │ (None, 128)            │        16,512 │\n├─────────────────────────────────┼────────────────────────┼───────────────┤\n│ dense_7 (Dense)                 │ (None, 9)              │         1,161 │\n└─────────────────────────────────┴────────────────────────┴───────────────┘\n\n\n\n Total params: 2,654,537 (10.13 MB)\n\n\n\n Trainable params: 2,619,657 (9.99 MB)\n\n\n\n Non-trainable params: 34,880 (136.25 KB)"
  },
  {
    "objectID": "projects/boat-classifier/index.html#compile-the-model-1",
    "href": "projects/boat-classifier/index.html#compile-the-model-1",
    "title": "Boat Image Classification with CNN and Transfer Learning",
…
